nohup: ignoring input
Using TensorFlow backend.
Loaded Inception model
____________________________________________________________________________________________________
Layer (type)                     Output Shape          Param #     Connected to                     
====================================================================================================
input_1 (InputLayer)             (None, 299, 299, 3)   0                                            
____________________________________________________________________________________________________
convolution2d_1 (Convolution2D)  (None, 149, 149, 32)  896         input_1[0][0]                    
____________________________________________________________________________________________________
batchnormalization_1 (BatchNormal(None, 149, 149, 32)  64          convolution2d_1[0][0]            
____________________________________________________________________________________________________
convolution2d_2 (Convolution2D)  (None, 147, 147, 32)  9248        batchnormalization_1[0][0]       
____________________________________________________________________________________________________
batchnormalization_2 (BatchNormal(None, 147, 147, 32)  64          convolution2d_2[0][0]            
____________________________________________________________________________________________________
convolution2d_3 (Convolution2D)  (None, 147, 147, 64)  18496       batchnormalization_2[0][0]       
____________________________________________________________________________________________________
batchnormalization_3 (BatchNormal(None, 147, 147, 64)  128         convolution2d_3[0][0]            
____________________________________________________________________________________________________
maxpooling2d_1 (MaxPooling2D)    (None, 73, 73, 64)    0           batchnormalization_3[0][0]       
____________________________________________________________________________________________________
convolution2d_4 (Convolution2D)  (None, 73, 73, 80)    5200        maxpooling2d_1[0][0]             
____________________________________________________________________________________________________
batchnormalization_4 (BatchNormal(None, 73, 73, 80)    160         convolution2d_4[0][0]            
____________________________________________________________________________________________________
convolution2d_5 (Convolution2D)  (None, 71, 71, 192)   138432      batchnormalization_4[0][0]       
____________________________________________________________________________________________________
batchnormalization_5 (BatchNormal(None, 71, 71, 192)   384         convolution2d_5[0][0]            
____________________________________________________________________________________________________
maxpooling2d_2 (MaxPooling2D)    (None, 35, 35, 192)   0           batchnormalization_5[0][0]       
____________________________________________________________________________________________________
convolution2d_9 (Convolution2D)  (None, 35, 35, 64)    12352       maxpooling2d_2[0][0]             
____________________________________________________________________________________________________
batchnormalization_9 (BatchNormal(None, 35, 35, 64)    128         convolution2d_9[0][0]            
____________________________________________________________________________________________________
convolution2d_7 (Convolution2D)  (None, 35, 35, 48)    9264        maxpooling2d_2[0][0]             
____________________________________________________________________________________________________
convolution2d_10 (Convolution2D) (None, 35, 35, 96)    55392       batchnormalization_9[0][0]       
____________________________________________________________________________________________________
batchnormalization_7 (BatchNormal(None, 35, 35, 48)    96          convolution2d_7[0][0]            
____________________________________________________________________________________________________
batchnormalization_10 (BatchNorma(None, 35, 35, 96)    192         convolution2d_10[0][0]           
____________________________________________________________________________________________________
averagepooling2d_1 (AveragePoolin(None, 35, 35, 192)   0           maxpooling2d_2[0][0]             
____________________________________________________________________________________________________
convolution2d_6 (Convolution2D)  (None, 35, 35, 64)    12352       maxpooling2d_2[0][0]             
____________________________________________________________________________________________________
convolution2d_8 (Convolution2D)  (None, 35, 35, 64)    76864       batchnormalization_7[0][0]       
____________________________________________________________________________________________________
convolution2d_11 (Convolution2D) (None, 35, 35, 96)    83040       batchnormalization_10[0][0]      
____________________________________________________________________________________________________
convolution2d_12 (Convolution2D) (None, 35, 35, 32)    6176        averagepooling2d_1[0][0]         
____________________________________________________________________________________________________
batchnormalization_6 (BatchNormal(None, 35, 35, 64)    128         convolution2d_6[0][0]            
____________________________________________________________________________________________________
batchnormalization_8 (BatchNormal(None, 35, 35, 64)    128         convolution2d_8[0][0]            
____________________________________________________________________________________________________
batchnormalization_11 (BatchNorma(None, 35, 35, 96)    192         convolution2d_11[0][0]           
____________________________________________________________________________________________________
batchnormalization_12 (BatchNorma(None, 35, 35, 32)    64          convolution2d_12[0][0]           
____________________________________________________________________________________________________
mixed0 (Merge)                   (None, 35, 35, 256)   0           batchnormalization_6[0][0]       
                                                                   batchnormalization_8[0][0]       
                                                                   batchnormalization_11[0][0]      
                                                                   batchnormalization_12[0][0]      
____________________________________________________________________________________________________
convolution2d_16 (Convolution2D) (None, 35, 35, 64)    16448       mixed0[0][0]                     
____________________________________________________________________________________________________
batchnormalization_16 (BatchNorma(None, 35, 35, 64)    128         convolution2d_16[0][0]           
____________________________________________________________________________________________________
convolution2d_14 (Convolution2D) (None, 35, 35, 48)    12336       mixed0[0][0]                     
____________________________________________________________________________________________________
convolution2d_17 (Convolution2D) (None, 35, 35, 96)    55392       batchnormalization_16[0][0]      
____________________________________________________________________________________________________
batchnormalization_14 (BatchNorma(None, 35, 35, 48)    96          convolution2d_14[0][0]           
____________________________________________________________________________________________________
batchnormalization_17 (BatchNorma(None, 35, 35, 96)    192         convolution2d_17[0][0]           
____________________________________________________________________________________________________
averagepooling2d_2 (AveragePoolin(None, 35, 35, 256)   0           mixed0[0][0]                     
____________________________________________________________________________________________________
convolution2d_13 (Convolution2D) (None, 35, 35, 64)    16448       mixed0[0][0]                     
____________________________________________________________________________________________________
convolution2d_15 (Convolution2D) (None, 35, 35, 64)    76864       batchnormalization_14[0][0]      
____________________________________________________________________________________________________
convolution2d_18 (Convolution2D) (None, 35, 35, 96)    83040       batchnormalization_17[0][0]      
____________________________________________________________________________________________________
convolution2d_19 (Convolution2D) (None, 35, 35, 32)    8224        averagepooling2d_2[0][0]         
____________________________________________________________________________________________________
batchnormalization_13 (BatchNorma(None, 35, 35, 64)    128         convolution2d_13[0][0]           
____________________________________________________________________________________________________
batchnormalization_15 (BatchNorma(None, 35, 35, 64)    128         convolution2d_15[0][0]           
____________________________________________________________________________________________________
batchnormalization_18 (BatchNorma(None, 35, 35, 96)    192         convolution2d_18[0][0]           
____________________________________________________________________________________________________
batchnormalization_19 (BatchNorma(None, 35, 35, 32)    64          convolution2d_19[0][0]           
____________________________________________________________________________________________________
mixed1 (Merge)                   (None, 35, 35, 256)   0           batchnormalization_13[0][0]      
                                                                   batchnormalization_15[0][0]      
                                                                   batchnormalization_18[0][0]      
                                                                   batchnormalization_19[0][0]      
____________________________________________________________________________________________________
convolution2d_23 (Convolution2D) (None, 35, 35, 64)    16448       mixed1[0][0]                     
____________________________________________________________________________________________________
batchnormalization_23 (BatchNorma(None, 35, 35, 64)    128         convolution2d_23[0][0]           
____________________________________________________________________________________________________
convolution2d_21 (Convolution2D) (None, 35, 35, 48)    12336       mixed1[0][0]                     
____________________________________________________________________________________________________
convolution2d_24 (Convolution2D) (None, 35, 35, 96)    55392       batchnormalization_23[0][0]      
____________________________________________________________________________________________________
batchnormalization_21 (BatchNorma(None, 35, 35, 48)    96          convolution2d_21[0][0]           
____________________________________________________________________________________________________
batchnormalization_24 (BatchNorma(None, 35, 35, 96)    192         convolution2d_24[0][0]           
____________________________________________________________________________________________________
averagepooling2d_3 (AveragePoolin(None, 35, 35, 256)   0           mixed1[0][0]                     
____________________________________________________________________________________________________
convolution2d_20 (Convolution2D) (None, 35, 35, 64)    16448       mixed1[0][0]                     
____________________________________________________________________________________________________
convolution2d_22 (Convolution2D) (None, 35, 35, 64)    76864       batchnormalization_21[0][0]      
____________________________________________________________________________________________________
convolution2d_25 (Convolution2D) (None, 35, 35, 96)    83040       batchnormalization_24[0][0]      
____________________________________________________________________________________________________
convolution2d_26 (Convolution2D) (None, 35, 35, 32)    8224        averagepooling2d_3[0][0]         
____________________________________________________________________________________________________
batchnormalization_20 (BatchNorma(None, 35, 35, 64)    128         convolution2d_20[0][0]           
____________________________________________________________________________________________________
batchnormalization_22 (BatchNorma(None, 35, 35, 64)    128         convolution2d_22[0][0]           
____________________________________________________________________________________________________
batchnormalization_25 (BatchNorma(None, 35, 35, 96)    192         convolution2d_25[0][0]           
____________________________________________________________________________________________________
batchnormalization_26 (BatchNorma(None, 35, 35, 32)    64          convolution2d_26[0][0]           
____________________________________________________________________________________________________
mixed2 (Merge)                   (None, 35, 35, 256)   0           batchnormalization_20[0][0]      
                                                                   batchnormalization_22[0][0]      
                                                                   batchnormalization_25[0][0]      
                                                                   batchnormalization_26[0][0]      
____________________________________________________________________________________________________
convolution2d_28 (Convolution2D) (None, 35, 35, 64)    16448       mixed2[0][0]                     
____________________________________________________________________________________________________
batchnormalization_28 (BatchNorma(None, 35, 35, 64)    128         convolution2d_28[0][0]           
____________________________________________________________________________________________________
convolution2d_29 (Convolution2D) (None, 35, 35, 96)    55392       batchnormalization_28[0][0]      
____________________________________________________________________________________________________
batchnormalization_29 (BatchNorma(None, 35, 35, 96)    192         convolution2d_29[0][0]           
____________________________________________________________________________________________________
convolution2d_27 (Convolution2D) (None, 17, 17, 384)   885120      mixed2[0][0]                     
____________________________________________________________________________________________________
convolution2d_30 (Convolution2D) (None, 17, 17, 96)    83040       batchnormalization_29[0][0]      
____________________________________________________________________________________________________
batchnormalization_27 (BatchNorma(None, 17, 17, 384)   768         convolution2d_27[0][0]           
____________________________________________________________________________________________________
batchnormalization_30 (BatchNorma(None, 17, 17, 96)    192         convolution2d_30[0][0]           
____________________________________________________________________________________________________
maxpooling2d_3 (MaxPooling2D)    (None, 17, 17, 256)   0           mixed2[0][0]                     
____________________________________________________________________________________________________
mixed3 (Merge)                   (None, 17, 17, 736)   0           batchnormalization_27[0][0]      
                                                                   batchnormalization_30[0][0]      
                                                                   maxpooling2d_3[0][0]             
____________________________________________________________________________________________________
convolution2d_35 (Convolution2D) (None, 17, 17, 128)   94336       mixed3[0][0]                     
____________________________________________________________________________________________________
batchnormalization_35 (BatchNorma(None, 17, 17, 128)   256         convolution2d_35[0][0]           
____________________________________________________________________________________________________
convolution2d_36 (Convolution2D) (None, 17, 17, 128)   114816      batchnormalization_35[0][0]      
____________________________________________________________________________________________________
batchnormalization_36 (BatchNorma(None, 17, 17, 128)   256         convolution2d_36[0][0]           
____________________________________________________________________________________________________
convolution2d_32 (Convolution2D) (None, 17, 17, 128)   94336       mixed3[0][0]                     
____________________________________________________________________________________________________
convolution2d_37 (Convolution2D) (None, 17, 17, 128)   114816      batchnormalization_36[0][0]      
____________________________________________________________________________________________________
batchnormalization_32 (BatchNorma(None, 17, 17, 128)   256         convolution2d_32[0][0]           
____________________________________________________________________________________________________
batchnormalization_37 (BatchNorma(None, 17, 17, 128)   256         convolution2d_37[0][0]           
____________________________________________________________________________________________________
convolution2d_33 (Convolution2D) (None, 17, 17, 128)   114816      batchnormalization_32[0][0]      
____________________________________________________________________________________________________
convolution2d_38 (Convolution2D) (None, 17, 17, 128)   114816      batchnormalization_37[0][0]      
____________________________________________________________________________________________________
batchnormalization_33 (BatchNorma(None, 17, 17, 128)   256         convolution2d_33[0][0]           
____________________________________________________________________________________________________
batchnormalization_38 (BatchNorma(None, 17, 17, 128)   256         convolution2d_38[0][0]           
____________________________________________________________________________________________________
averagepooling2d_4 (AveragePoolin(None, 17, 17, 736)   0           mixed3[0][0]                     
____________________________________________________________________________________________________
convolution2d_31 (Convolution2D) (None, 17, 17, 192)   141504      mixed3[0][0]                     
____________________________________________________________________________________________________
convolution2d_34 (Convolution2D) (None, 17, 17, 192)   172224      batchnormalization_33[0][0]      
____________________________________________________________________________________________________
convolution2d_39 (Convolution2D) (None, 17, 17, 192)   172224      batchnormalization_38[0][0]      
____________________________________________________________________________________________________
convolution2d_40 (Convolution2D) (None, 17, 17, 192)   141504      averagepooling2d_4[0][0]         
____________________________________________________________________________________________________
batchnormalization_31 (BatchNorma(None, 17, 17, 192)   384         convolution2d_31[0][0]           
____________________________________________________________________________________________________
batchnormalization_34 (BatchNorma(None, 17, 17, 192)   384         convolution2d_34[0][0]           
____________________________________________________________________________________________________
batchnormalization_39 (BatchNorma(None, 17, 17, 192)   384         convolution2d_39[0][0]           
____________________________________________________________________________________________________
batchnormalization_40 (BatchNorma(None, 17, 17, 192)   384         convolution2d_40[0][0]           
____________________________________________________________________________________________________
mixed4 (Merge)                   (None, 17, 17, 768)   0           batchnormalization_31[0][0]      
                                                                   batchnormalization_34[0][0]      
                                                                   batchnormalization_39[0][0]      
                                                                   batchnormalization_40[0][0]      
____________________________________________________________________________________________________
convolution2d_45 (Convolution2D) (None, 17, 17, 160)   123040      mixed4[0][0]                     
____________________________________________________________________________________________________
batchnormalization_45 (BatchNorma(None, 17, 17, 160)   320         convolution2d_45[0][0]           
____________________________________________________________________________________________________
convolution2d_46 (Convolution2D) (None, 17, 17, 160)   179360      batchnormalization_45[0][0]      
____________________________________________________________________________________________________
batchnormalization_46 (BatchNorma(None, 17, 17, 160)   320         convolution2d_46[0][0]           
____________________________________________________________________________________________________
convolution2d_42 (Convolution2D) (None, 17, 17, 160)   123040      mixed4[0][0]                     
____________________________________________________________________________________________________
convolution2d_47 (Convolution2D) (None, 17, 17, 160)   179360      batchnormalization_46[0][0]      
____________________________________________________________________________________________________
batchnormalization_42 (BatchNorma(None, 17, 17, 160)   320         convolution2d_42[0][0]           
____________________________________________________________________________________________________
batchnormalization_47 (BatchNorma(None, 17, 17, 160)   320         convolution2d_47[0][0]           
____________________________________________________________________________________________________
convolution2d_43 (Convolution2D) (None, 17, 17, 160)   179360      batchnormalization_42[0][0]      
____________________________________________________________________________________________________
convolution2d_48 (Convolution2D) (None, 17, 17, 160)   179360      batchnormalization_47[0][0]      
____________________________________________________________________________________________________
batchnormalization_43 (BatchNorma(None, 17, 17, 160)   320         convolution2d_43[0][0]           
____________________________________________________________________________________________________
batchnormalization_48 (BatchNorma(None, 17, 17, 160)   320         convolution2d_48[0][0]           
____________________________________________________________________________________________________
averagepooling2d_5 (AveragePoolin(None, 17, 17, 768)   0           mixed4[0][0]                     
____________________________________________________________________________________________________
convolution2d_41 (Convolution2D) (None, 17, 17, 192)   147648      mixed4[0][0]                     
____________________________________________________________________________________________________
convolution2d_44 (Convolution2D) (None, 17, 17, 192)   215232      batchnormalization_43[0][0]      
____________________________________________________________________________________________________
convolution2d_49 (Convolution2D) (None, 17, 17, 192)   215232      batchnormalization_48[0][0]      
____________________________________________________________________________________________________
convolution2d_50 (Convolution2D) (None, 17, 17, 192)   147648      averagepooling2d_5[0][0]         
____________________________________________________________________________________________________
batchnormalization_41 (BatchNorma(None, 17, 17, 192)   384         convolution2d_41[0][0]           
____________________________________________________________________________________________________
batchnormalization_44 (BatchNorma(None, 17, 17, 192)   384         convolution2d_44[0][0]           
____________________________________________________________________________________________________
batchnormalization_49 (BatchNorma(None, 17, 17, 192)   384         convolution2d_49[0][0]           
____________________________________________________________________________________________________
batchnormalization_50 (BatchNorma(None, 17, 17, 192)   384         convolution2d_50[0][0]           
____________________________________________________________________________________________________
mixed5 (Merge)                   (None, 17, 17, 768)   0           batchnormalization_41[0][0]      
                                                                   batchnormalization_44[0][0]      
                                                                   batchnormalization_49[0][0]      
                                                                   batchnormalization_50[0][0]      
____________________________________________________________________________________________________
convolution2d_55 (Convolution2D) (None, 17, 17, 160)   123040      mixed5[0][0]                     
____________________________________________________________________________________________________
batchnormalization_55 (BatchNorma(None, 17, 17, 160)   320         convolution2d_55[0][0]           
____________________________________________________________________________________________________
convolution2d_56 (Convolution2D) (None, 17, 17, 160)   179360      batchnormalization_55[0][0]      
____________________________________________________________________________________________________
batchnormalization_56 (BatchNorma(None, 17, 17, 160)   320         convolution2d_56[0][0]           
____________________________________________________________________________________________________
convolution2d_52 (Convolution2D) (None, 17, 17, 160)   123040      mixed5[0][0]                     
____________________________________________________________________________________________________
convolution2d_57 (Convolution2D) (None, 17, 17, 160)   179360      batchnormalization_56[0][0]      
____________________________________________________________________________________________________
batchnormalization_52 (BatchNorma(None, 17, 17, 160)   320         convolution2d_52[0][0]           
____________________________________________________________________________________________________
batchnormalization_57 (BatchNorma(None, 17, 17, 160)   320         convolution2d_57[0][0]           
____________________________________________________________________________________________________
convolution2d_53 (Convolution2D) (None, 17, 17, 160)   179360      batchnormalization_52[0][0]      
____________________________________________________________________________________________________
convolution2d_58 (Convolution2D) (None, 17, 17, 160)   179360      batchnormalization_57[0][0]      
____________________________________________________________________________________________________
batchnormalization_53 (BatchNorma(None, 17, 17, 160)   320         convolution2d_53[0][0]           
____________________________________________________________________________________________________
batchnormalization_58 (BatchNorma(None, 17, 17, 160)   320         convolution2d_58[0][0]           
____________________________________________________________________________________________________
averagepooling2d_6 (AveragePoolin(None, 17, 17, 768)   0           mixed5[0][0]                     
____________________________________________________________________________________________________
convolution2d_51 (Convolution2D) (None, 17, 17, 192)   147648      mixed5[0][0]                     
____________________________________________________________________________________________________
convolution2d_54 (Convolution2D) (None, 17, 17, 192)   215232      batchnormalization_53[0][0]      
____________________________________________________________________________________________________
convolution2d_59 (Convolution2D) (None, 17, 17, 192)   215232      batchnormalization_58[0][0]      
____________________________________________________________________________________________________
convolution2d_60 (Convolution2D) (None, 17, 17, 192)   147648      averagepooling2d_6[0][0]         
____________________________________________________________________________________________________
batchnormalization_51 (BatchNorma(None, 17, 17, 192)   384         convolution2d_51[0][0]           
____________________________________________________________________________________________________
batchnormalization_54 (BatchNorma(None, 17, 17, 192)   384         convolution2d_54[0][0]           
____________________________________________________________________________________________________
batchnormalization_59 (BatchNorma(None, 17, 17, 192)   384         convolution2d_59[0][0]           
____________________________________________________________________________________________________
batchnormalization_60 (BatchNorma(None, 17, 17, 192)   384         convolution2d_60[0][0]           
____________________________________________________________________________________________________
mixed6 (Merge)                   (None, 17, 17, 768)   0           batchnormalization_51[0][0]      
                                                                   batchnormalization_54[0][0]      
                                                                   batchnormalization_59[0][0]      
                                                                   batchnormalization_60[0][0]      
____________________________________________________________________________________________________
convolution2d_65 (Convolution2D) (None, 17, 17, 160)   123040      mixed6[0][0]                     
____________________________________________________________________________________________________
batchnormalization_65 (BatchNorma(None, 17, 17, 160)   320         convolution2d_65[0][0]           
____________________________________________________________________________________________________
convolution2d_66 (Convolution2D) (None, 17, 17, 192)   215232      batchnormalization_65[0][0]      
____________________________________________________________________________________________________
batchnormalization_66 (BatchNorma(None, 17, 17, 192)   384         convolution2d_66[0][0]           
____________________________________________________________________________________________________
convolution2d_62 (Convolution2D) (None, 17, 17, 192)   147648      mixed6[0][0]                     
____________________________________________________________________________________________________
convolution2d_67 (Convolution2D) (None, 17, 17, 192)   258240      batchnormalization_66[0][0]      
____________________________________________________________________________________________________
batchnormalization_62 (BatchNorma(None, 17, 17, 192)   384         convolution2d_62[0][0]           
____________________________________________________________________________________________________
batchnormalization_67 (BatchNorma(None, 17, 17, 192)   384         convolution2d_67[0][0]           
____________________________________________________________________________________________________
convolution2d_63 (Convolution2D) (None, 17, 17, 192)   258240      batchnormalization_62[0][0]      
____________________________________________________________________________________________________
convolution2d_68 (Convolution2D) (None, 17, 17, 192)   258240      batchnormalization_67[0][0]      
____________________________________________________________________________________________________
batchnormalization_63 (BatchNorma(None, 17, 17, 192)   384         convolution2d_63[0][0]           
____________________________________________________________________________________________________
batchnormalization_68 (BatchNorma(None, 17, 17, 192)   384         convolution2d_68[0][0]           
____________________________________________________________________________________________________
averagepooling2d_7 (AveragePoolin(None, 17, 17, 768)   0           mixed6[0][0]                     
____________________________________________________________________________________________________
convolution2d_61 (Convolution2D) (None, 17, 17, 192)   147648      mixed6[0][0]                     
____________________________________________________________________________________________________
convolution2d_64 (Convolution2D) (None, 17, 17, 192)   258240      batchnormalization_63[0][0]      
____________________________________________________________________________________________________
convolution2d_69 (Convolution2D) (None, 17, 17, 192)   258240      batchnormalization_68[0][0]      
____________________________________________________________________________________________________
convolution2d_70 (Convolution2D) (None, 17, 17, 192)   147648      averagepooling2d_7[0][0]         
____________________________________________________________________________________________________
batchnormalization_61 (BatchNorma(None, 17, 17, 192)   384         convolution2d_61[0][0]           
____________________________________________________________________________________________________
batchnormalization_64 (BatchNorma(None, 17, 17, 192)   384         convolution2d_64[0][0]           
____________________________________________________________________________________________________
batchnormalization_69 (BatchNorma(None, 17, 17, 192)   384         convolution2d_69[0][0]           
____________________________________________________________________________________________________
batchnormalization_70 (BatchNorma(None, 17, 17, 192)   384         convolution2d_70[0][0]           
____________________________________________________________________________________________________
mixed7 (Merge)                   (None, 17, 17, 768)   0           batchnormalization_61[0][0]      
                                                                   batchnormalization_64[0][0]      
                                                                   batchnormalization_69[0][0]      
                                                                   batchnormalization_70[0][0]      
____________________________________________________________________________________________________
convolution2d_73 (Convolution2D) (None, 17, 17, 192)   147648      mixed7[0][0]                     
____________________________________________________________________________________________________
batchnormalization_73 (BatchNorma(None, 17, 17, 192)   384         convolution2d_73[0][0]           
____________________________________________________________________________________________________
convolution2d_74 (Convolution2D) (None, 17, 17, 192)   258240      batchnormalization_73[0][0]      
____________________________________________________________________________________________________
batchnormalization_74 (BatchNorma(None, 17, 17, 192)   384         convolution2d_74[0][0]           
____________________________________________________________________________________________________
convolution2d_71 (Convolution2D) (None, 17, 17, 192)   147648      mixed7[0][0]                     
____________________________________________________________________________________________________
convolution2d_75 (Convolution2D) (None, 17, 17, 192)   258240      batchnormalization_74[0][0]      
____________________________________________________________________________________________________
batchnormalization_71 (BatchNorma(None, 17, 17, 192)   384         convolution2d_71[0][0]           
____________________________________________________________________________________________________
batchnormalization_75 (BatchNorma(None, 17, 17, 192)   384         convolution2d_75[0][0]           
____________________________________________________________________________________________________
convolution2d_72 (Convolution2D) (None, 8, 8, 320)     553280      batchnormalization_71[0][0]      
____________________________________________________________________________________________________
convolution2d_76 (Convolution2D) (None, 8, 8, 192)     331968      batchnormalization_75[0][0]      
____________________________________________________________________________________________________
batchnormalization_72 (BatchNorma(None, 8, 8, 320)     640         convolution2d_72[0][0]           
____________________________________________________________________________________________________
batchnormalization_76 (BatchNorma(None, 8, 8, 192)     384         convolution2d_76[0][0]           
____________________________________________________________________________________________________
averagepooling2d_8 (AveragePoolin(None, 8, 8, 768)     0           mixed7[0][0]                     
____________________________________________________________________________________________________
mixed8 (Merge)                   (None, 8, 8, 1280)    0           batchnormalization_72[0][0]      
                                                                   batchnormalization_76[0][0]      
                                                                   averagepooling2d_8[0][0]         
____________________________________________________________________________________________________
convolution2d_81 (Convolution2D) (None, 8, 8, 448)     573888      mixed8[0][0]                     
____________________________________________________________________________________________________
batchnormalization_81 (BatchNorma(None, 8, 8, 448)     896         convolution2d_81[0][0]           
____________________________________________________________________________________________________
convolution2d_78 (Convolution2D) (None, 8, 8, 384)     491904      mixed8[0][0]                     
____________________________________________________________________________________________________
convolution2d_82 (Convolution2D) (None, 8, 8, 384)     1548672     batchnormalization_81[0][0]      
____________________________________________________________________________________________________
batchnormalization_78 (BatchNorma(None, 8, 8, 384)     768         convolution2d_78[0][0]           
____________________________________________________________________________________________________
batchnormalization_82 (BatchNorma(None, 8, 8, 384)     768         convolution2d_82[0][0]           
____________________________________________________________________________________________________
convolution2d_79 (Convolution2D) (None, 8, 8, 384)     442752      batchnormalization_78[0][0]      
____________________________________________________________________________________________________
convolution2d_80 (Convolution2D) (None, 8, 8, 384)     442752      batchnormalization_78[0][0]      
____________________________________________________________________________________________________
convolution2d_83 (Convolution2D) (None, 8, 8, 384)     442752      batchnormalization_82[0][0]      
____________________________________________________________________________________________________
convolution2d_84 (Convolution2D) (None, 8, 8, 384)     442752      batchnormalization_82[0][0]      
____________________________________________________________________________________________________
averagepooling2d_9 (AveragePoolin(None, 8, 8, 1280)    0           mixed8[0][0]                     
____________________________________________________________________________________________________
convolution2d_77 (Convolution2D) (None, 8, 8, 320)     409920      mixed8[0][0]                     
____________________________________________________________________________________________________
batchnormalization_79 (BatchNorma(None, 8, 8, 384)     768         convolution2d_79[0][0]           
____________________________________________________________________________________________________
batchnormalization_80 (BatchNorma(None, 8, 8, 384)     768         convolution2d_80[0][0]           
____________________________________________________________________________________________________
batchnormalization_83 (BatchNorma(None, 8, 8, 384)     768         convolution2d_83[0][0]           
____________________________________________________________________________________________________
batchnormalization_84 (BatchNorma(None, 8, 8, 384)     768         convolution2d_84[0][0]           
____________________________________________________________________________________________________
convolution2d_85 (Convolution2D) (None, 8, 8, 192)     245952      averagepooling2d_9[0][0]         
____________________________________________________________________________________________________
batchnormalization_77 (BatchNorma(None, 8, 8, 320)     640         convolution2d_77[0][0]           
____________________________________________________________________________________________________
mixed9_0 (Merge)                 (None, 8, 8, 768)     0           batchnormalization_79[0][0]      
                                                                   batchnormalization_80[0][0]      
____________________________________________________________________________________________________
merge_1 (Merge)                  (None, 8, 8, 768)     0           batchnormalization_83[0][0]      
                                                                   batchnormalization_84[0][0]      
____________________________________________________________________________________________________
batchnormalization_85 (BatchNorma(None, 8, 8, 192)     384         convolution2d_85[0][0]           
____________________________________________________________________________________________________
mixed9 (Merge)                   (None, 8, 8, 2048)    0           batchnormalization_77[0][0]      
                                                                   mixed9_0[0][0]                   
                                                                   merge_1[0][0]                    
                                                                   batchnormalization_85[0][0]      
____________________________________________________________________________________________________
convolution2d_90 (Convolution2D) (None, 8, 8, 448)     917952      mixed9[0][0]                     
____________________________________________________________________________________________________
batchnormalization_90 (BatchNorma(None, 8, 8, 448)     896         convolution2d_90[0][0]           
____________________________________________________________________________________________________
convolution2d_87 (Convolution2D) (None, 8, 8, 384)     786816      mixed9[0][0]                     
____________________________________________________________________________________________________
convolution2d_91 (Convolution2D) (None, 8, 8, 384)     1548672     batchnormalization_90[0][0]      
____________________________________________________________________________________________________
batchnormalization_87 (BatchNorma(None, 8, 8, 384)     768         convolution2d_87[0][0]           
____________________________________________________________________________________________________
batchnormalization_91 (BatchNorma(None, 8, 8, 384)     768         convolution2d_91[0][0]           
____________________________________________________________________________________________________
convolution2d_88 (Convolution2D) (None, 8, 8, 384)     442752      batchnormalization_87[0][0]      
____________________________________________________________________________________________________
convolution2d_89 (Convolution2D) (None, 8, 8, 384)     442752      batchnormalization_87[0][0]      
____________________________________________________________________________________________________
convolution2d_92 (Convolution2D) (None, 8, 8, 384)     442752      batchnormalization_91[0][0]      
____________________________________________________________________________________________________
convolution2d_93 (Convolution2D) (None, 8, 8, 384)     442752      batchnormalization_91[0][0]      
____________________________________________________________________________________________________
averagepooling2d_10 (AveragePooli(None, 8, 8, 2048)    0           mixed9[0][0]                     
____________________________________________________________________________________________________
convolution2d_86 (Convolution2D) (None, 8, 8, 320)     655680      mixed9[0][0]                     
____________________________________________________________________________________________________
batchnormalization_88 (BatchNorma(None, 8, 8, 384)     768         convolution2d_88[0][0]           
____________________________________________________________________________________________________
batchnormalization_89 (BatchNorma(None, 8, 8, 384)     768         convolution2d_89[0][0]           
____________________________________________________________________________________________________
batchnormalization_92 (BatchNorma(None, 8, 8, 384)     768         convolution2d_92[0][0]           
____________________________________________________________________________________________________
batchnormalization_93 (BatchNorma(None, 8, 8, 384)     768         convolution2d_93[0][0]           
____________________________________________________________________________________________________
convolution2d_94 (Convolution2D) (None, 8, 8, 192)     393408      averagepooling2d_10[0][0]        
____________________________________________________________________________________________________
batchnormalization_86 (BatchNorma(None, 8, 8, 320)     640         convolution2d_86[0][0]           
____________________________________________________________________________________________________
mixed9_1 (Merge)                 (None, 8, 8, 768)     0           batchnormalization_88[0][0]      
                                                                   batchnormalization_89[0][0]      
____________________________________________________________________________________________________
merge_2 (Merge)                  (None, 8, 8, 768)     0           batchnormalization_92[0][0]      
                                                                   batchnormalization_93[0][0]      
____________________________________________________________________________________________________
batchnormalization_94 (BatchNorma(None, 8, 8, 192)     384         convolution2d_94[0][0]           
____________________________________________________________________________________________________
mixed10 (Merge)                  (None, 8, 8, 2048)    0           batchnormalization_86[0][0]      
                                                                   mixed9_1[0][0]                   
                                                                   merge_2[0][0]                    
                                                                   batchnormalization_94[0][0]      
____________________________________________________________________________________________________
avg_pool (AveragePooling2D)      (None, 1, 1, 2048)    0           mixed10[0][0]                    
____________________________________________________________________________________________________
flatten (Flatten)                (None, 2048)          0           avg_pool[0][0]                   
____________________________________________________________________________________________________
dense_1 (Dense)                  (None, 32)            65568       flatten[0][0]                    
____________________________________________________________________________________________________
dropout_1 (Dropout)              (None, 32)            0           dense_1[0][0]                    
____________________________________________________________________________________________________
predictions (Dense)              (None, 3)             99          dropout_1[0][0]                  
====================================================================================================
Total params: 21643395
____________________________________________________________________________________________________
None
Loading model
Loaded Inception model
____________________________________________________________________________________________________
Layer (type)                     Output Shape          Param #     Connected to                     
====================================================================================================
input_2 (InputLayer)             (None, 299, 299, 3)   0                                            
____________________________________________________________________________________________________
convolution2d_95 (Convolution2D) (None, 149, 149, 32)  896         input_2[0][0]                    
____________________________________________________________________________________________________
batchnormalization_95 (BatchNorma(None, 149, 149, 32)  64          convolution2d_95[0][0]           
____________________________________________________________________________________________________
convolution2d_96 (Convolution2D) (None, 147, 147, 32)  9248        batchnormalization_95[0][0]      
____________________________________________________________________________________________________
batchnormalization_96 (BatchNorma(None, 147, 147, 32)  64          convolution2d_96[0][0]           
____________________________________________________________________________________________________
convolution2d_97 (Convolution2D) (None, 147, 147, 64)  18496       batchnormalization_96[0][0]      
____________________________________________________________________________________________________
batchnormalization_97 (BatchNorma(None, 147, 147, 64)  128         convolution2d_97[0][0]           
____________________________________________________________________________________________________
maxpooling2d_4 (MaxPooling2D)    (None, 73, 73, 64)    0           batchnormalization_97[0][0]      
____________________________________________________________________________________________________
convolution2d_98 (Convolution2D) (None, 73, 73, 80)    5200        maxpooling2d_4[0][0]             
____________________________________________________________________________________________________
batchnormalization_98 (BatchNorma(None, 73, 73, 80)    160         convolution2d_98[0][0]           
____________________________________________________________________________________________________
convolution2d_99 (Convolution2D) (None, 71, 71, 192)   138432      batchnormalization_98[0][0]      
____________________________________________________________________________________________________
batchnormalization_99 (BatchNorma(None, 71, 71, 192)   384         convolution2d_99[0][0]           
____________________________________________________________________________________________________
maxpooling2d_5 (MaxPooling2D)    (None, 35, 35, 192)   0           batchnormalization_99[0][0]      
____________________________________________________________________________________________________
convolution2d_103 (Convolution2D)(None, 35, 35, 64)    12352       maxpooling2d_5[0][0]             
____________________________________________________________________________________________________
batchnormalization_103 (BatchNorm(None, 35, 35, 64)    128         convolution2d_103[0][0]          
____________________________________________________________________________________________________
convolution2d_101 (Convolution2D)(None, 35, 35, 48)    9264        maxpooling2d_5[0][0]             
____________________________________________________________________________________________________
convolution2d_104 (Convolution2D)(None, 35, 35, 96)    55392       batchnormalization_103[0][0]     
____________________________________________________________________________________________________
batchnormalization_101 (BatchNorm(None, 35, 35, 48)    96          convolution2d_101[0][0]          
____________________________________________________________________________________________________
batchnormalization_104 (BatchNorm(None, 35, 35, 96)    192         convolution2d_104[0][0]          
____________________________________________________________________________________________________
averagepooling2d_11 (AveragePooli(None, 35, 35, 192)   0           maxpooling2d_5[0][0]             
____________________________________________________________________________________________________
convolution2d_100 (Convolution2D)(None, 35, 35, 64)    12352       maxpooling2d_5[0][0]             
____________________________________________________________________________________________________
convolution2d_102 (Convolution2D)(None, 35, 35, 64)    76864       batchnormalization_101[0][0]     
____________________________________________________________________________________________________
convolution2d_105 (Convolution2D)(None, 35, 35, 96)    83040       batchnormalization_104[0][0]     
____________________________________________________________________________________________________
convolution2d_106 (Convolution2D)(None, 35, 35, 32)    6176        averagepooling2d_11[0][0]        
____________________________________________________________________________________________________
batchnormalization_100 (BatchNorm(None, 35, 35, 64)    128         convolution2d_100[0][0]          
____________________________________________________________________________________________________
batchnormalization_102 (BatchNorm(None, 35, 35, 64)    128         convolution2d_102[0][0]          
____________________________________________________________________________________________________
batchnormalization_105 (BatchNorm(None, 35, 35, 96)    192         convolution2d_105[0][0]          
____________________________________________________________________________________________________
batchnormalization_106 (BatchNorm(None, 35, 35, 32)    64          convolution2d_106[0][0]          
____________________________________________________________________________________________________
mixed0 (Merge)                   (None, 35, 35, 256)   0           batchnormalization_100[0][0]     
                                                                   batchnormalization_102[0][0]     
                                                                   batchnormalization_105[0][0]     
                                                                   batchnormalization_106[0][0]     
____________________________________________________________________________________________________
convolution2d_110 (Convolution2D)(None, 35, 35, 64)    16448       mixed0[0][0]                     
____________________________________________________________________________________________________
batchnormalization_110 (BatchNorm(None, 35, 35, 64)    128         convolution2d_110[0][0]          
____________________________________________________________________________________________________
convolution2d_108 (Convolution2D)(None, 35, 35, 48)    12336       mixed0[0][0]                     
____________________________________________________________________________________________________
convolution2d_111 (Convolution2D)(None, 35, 35, 96)    55392       batchnormalization_110[0][0]     
____________________________________________________________________________________________________
batchnormalization_108 (BatchNorm(None, 35, 35, 48)    96          convolution2d_108[0][0]          
____________________________________________________________________________________________________
batchnormalization_111 (BatchNorm(None, 35, 35, 96)    192         convolution2d_111[0][0]          
____________________________________________________________________________________________________
averagepooling2d_12 (AveragePooli(None, 35, 35, 256)   0           mixed0[0][0]                     
____________________________________________________________________________________________________
convolution2d_107 (Convolution2D)(None, 35, 35, 64)    16448       mixed0[0][0]                     
____________________________________________________________________________________________________
convolution2d_109 (Convolution2D)(None, 35, 35, 64)    76864       batchnormalization_108[0][0]     
____________________________________________________________________________________________________
convolution2d_112 (Convolution2D)(None, 35, 35, 96)    83040       batchnormalization_111[0][0]     
____________________________________________________________________________________________________
convolution2d_113 (Convolution2D)(None, 35, 35, 32)    8224        averagepooling2d_12[0][0]        
____________________________________________________________________________________________________
batchnormalization_107 (BatchNorm(None, 35, 35, 64)    128         convolution2d_107[0][0]          
____________________________________________________________________________________________________
batchnormalization_109 (BatchNorm(None, 35, 35, 64)    128         convolution2d_109[0][0]          
____________________________________________________________________________________________________
batchnormalization_112 (BatchNorm(None, 35, 35, 96)    192         convolution2d_112[0][0]          
____________________________________________________________________________________________________
batchnormalization_113 (BatchNorm(None, 35, 35, 32)    64          convolution2d_113[0][0]          
____________________________________________________________________________________________________
mixed1 (Merge)                   (None, 35, 35, 256)   0           batchnormalization_107[0][0]     
                                                                   batchnormalization_109[0][0]     
                                                                   batchnormalization_112[0][0]     
                                                                   batchnormalization_113[0][0]     
____________________________________________________________________________________________________
convolution2d_117 (Convolution2D)(None, 35, 35, 64)    16448       mixed1[0][0]                     
____________________________________________________________________________________________________
batchnormalization_117 (BatchNorm(None, 35, 35, 64)    128         convolution2d_117[0][0]          
____________________________________________________________________________________________________
convolution2d_115 (Convolution2D)(None, 35, 35, 48)    12336       mixed1[0][0]                     
____________________________________________________________________________________________________
convolution2d_118 (Convolution2D)(None, 35, 35, 96)    55392       batchnormalization_117[0][0]     
____________________________________________________________________________________________________
batchnormalization_115 (BatchNorm(None, 35, 35, 48)    96          convolution2d_115[0][0]          
____________________________________________________________________________________________________
batchnormalization_118 (BatchNorm(None, 35, 35, 96)    192         convolution2d_118[0][0]          
____________________________________________________________________________________________________
averagepooling2d_13 (AveragePooli(None, 35, 35, 256)   0           mixed1[0][0]                     
____________________________________________________________________________________________________
convolution2d_114 (Convolution2D)(None, 35, 35, 64)    16448       mixed1[0][0]                     
____________________________________________________________________________________________________
convolution2d_116 (Convolution2D)(None, 35, 35, 64)    76864       batchnormalization_115[0][0]     
____________________________________________________________________________________________________
convolution2d_119 (Convolution2D)(None, 35, 35, 96)    83040       batchnormalization_118[0][0]     
____________________________________________________________________________________________________
convolution2d_120 (Convolution2D)(None, 35, 35, 32)    8224        averagepooling2d_13[0][0]        
____________________________________________________________________________________________________
batchnormalization_114 (BatchNorm(None, 35, 35, 64)    128         convolution2d_114[0][0]          
____________________________________________________________________________________________________
batchnormalization_116 (BatchNorm(None, 35, 35, 64)    128         convolution2d_116[0][0]          
____________________________________________________________________________________________________
batchnormalization_119 (BatchNorm(None, 35, 35, 96)    192         convolution2d_119[0][0]          
____________________________________________________________________________________________________
batchnormalization_120 (BatchNorm(None, 35, 35, 32)    64          convolution2d_120[0][0]          
____________________________________________________________________________________________________
mixed2 (Merge)                   (None, 35, 35, 256)   0           batchnormalization_114[0][0]     
                                                                   batchnormalization_116[0][0]     
                                                                   batchnormalization_119[0][0]     
                                                                   batchnormalization_120[0][0]     
____________________________________________________________________________________________________
convolution2d_122 (Convolution2D)(None, 35, 35, 64)    16448       mixed2[0][0]                     
____________________________________________________________________________________________________
batchnormalization_122 (BatchNorm(None, 35, 35, 64)    128         convolution2d_122[0][0]          
____________________________________________________________________________________________________
convolution2d_123 (Convolution2D)(None, 35, 35, 96)    55392       batchnormalization_122[0][0]     
____________________________________________________________________________________________________
batchnormalization_123 (BatchNorm(None, 35, 35, 96)    192         convolution2d_123[0][0]          
____________________________________________________________________________________________________
convolution2d_121 (Convolution2D)(None, 17, 17, 384)   885120      mixed2[0][0]                     
____________________________________________________________________________________________________
convolution2d_124 (Convolution2D)(None, 17, 17, 96)    83040       batchnormalization_123[0][0]     
____________________________________________________________________________________________________
batchnormalization_121 (BatchNorm(None, 17, 17, 384)   768         convolution2d_121[0][0]          
____________________________________________________________________________________________________
batchnormalization_124 (BatchNorm(None, 17, 17, 96)    192         convolution2d_124[0][0]          
____________________________________________________________________________________________________
maxpooling2d_6 (MaxPooling2D)    (None, 17, 17, 256)   0           mixed2[0][0]                     
____________________________________________________________________________________________________
mixed3 (Merge)                   (None, 17, 17, 736)   0           batchnormalization_121[0][0]     
                                                                   batchnormalization_124[0][0]     
                                                                   maxpooling2d_6[0][0]             
____________________________________________________________________________________________________
convolution2d_129 (Convolution2D)(None, 17, 17, 128)   94336       mixed3[0][0]                     
____________________________________________________________________________________________________
batchnormalization_129 (BatchNorm(None, 17, 17, 128)   256         convolution2d_129[0][0]          
____________________________________________________________________________________________________
convolution2d_130 (Convolution2D)(None, 17, 17, 128)   114816      batchnormalization_129[0][0]     
____________________________________________________________________________________________________
batchnormalization_130 (BatchNorm(None, 17, 17, 128)   256         convolution2d_130[0][0]          
____________________________________________________________________________________________________
convolution2d_126 (Convolution2D)(None, 17, 17, 128)   94336       mixed3[0][0]                     
____________________________________________________________________________________________________
convolution2d_131 (Convolution2D)(None, 17, 17, 128)   114816      batchnormalization_130[0][0]     
____________________________________________________________________________________________________
batchnormalization_126 (BatchNorm(None, 17, 17, 128)   256         convolution2d_126[0][0]          
____________________________________________________________________________________________________
batchnormalization_131 (BatchNorm(None, 17, 17, 128)   256         convolution2d_131[0][0]          
____________________________________________________________________________________________________
convolution2d_127 (Convolution2D)(None, 17, 17, 128)   114816      batchnormalization_126[0][0]     
____________________________________________________________________________________________________
convolution2d_132 (Convolution2D)(None, 17, 17, 128)   114816      batchnormalization_131[0][0]     
____________________________________________________________________________________________________
batchnormalization_127 (BatchNorm(None, 17, 17, 128)   256         convolution2d_127[0][0]          
____________________________________________________________________________________________________
batchnormalization_132 (BatchNorm(None, 17, 17, 128)   256         convolution2d_132[0][0]          
____________________________________________________________________________________________________
averagepooling2d_14 (AveragePooli(None, 17, 17, 736)   0           mixed3[0][0]                     
____________________________________________________________________________________________________
convolution2d_125 (Convolution2D)(None, 17, 17, 192)   141504      mixed3[0][0]                     
____________________________________________________________________________________________________
convolution2d_128 (Convolution2D)(None, 17, 17, 192)   172224      batchnormalization_127[0][0]     
____________________________________________________________________________________________________
convolution2d_133 (Convolution2D)(None, 17, 17, 192)   172224      batchnormalization_132[0][0]     
____________________________________________________________________________________________________
convolution2d_134 (Convolution2D)(None, 17, 17, 192)   141504      averagepooling2d_14[0][0]        
____________________________________________________________________________________________________
batchnormalization_125 (BatchNorm(None, 17, 17, 192)   384         convolution2d_125[0][0]          
____________________________________________________________________________________________________
batchnormalization_128 (BatchNorm(None, 17, 17, 192)   384         convolution2d_128[0][0]          
____________________________________________________________________________________________________
batchnormalization_133 (BatchNorm(None, 17, 17, 192)   384         convolution2d_133[0][0]          
____________________________________________________________________________________________________
batchnormalization_134 (BatchNorm(None, 17, 17, 192)   384         convolution2d_134[0][0]          
____________________________________________________________________________________________________
mixed4 (Merge)                   (None, 17, 17, 768)   0           batchnormalization_125[0][0]     
                                                                   batchnormalization_128[0][0]     
                                                                   batchnormalization_133[0][0]     
                                                                   batchnormalization_134[0][0]     
____________________________________________________________________________________________________
convolution2d_139 (Convolution2D)(None, 17, 17, 160)   123040      mixed4[0][0]                     
____________________________________________________________________________________________________
batchnormalization_139 (BatchNorm(None, 17, 17, 160)   320         convolution2d_139[0][0]          
____________________________________________________________________________________________________
convolution2d_140 (Convolution2D)(None, 17, 17, 160)   179360      batchnormalization_139[0][0]     
____________________________________________________________________________________________________
batchnormalization_140 (BatchNorm(None, 17, 17, 160)   320         convolution2d_140[0][0]          
____________________________________________________________________________________________________
convolution2d_136 (Convolution2D)(None, 17, 17, 160)   123040      mixed4[0][0]                     
____________________________________________________________________________________________________
convolution2d_141 (Convolution2D)(None, 17, 17, 160)   179360      batchnormalization_140[0][0]     
____________________________________________________________________________________________________
batchnormalization_136 (BatchNorm(None, 17, 17, 160)   320         convolution2d_136[0][0]          
____________________________________________________________________________________________________
batchnormalization_141 (BatchNorm(None, 17, 17, 160)   320         convolution2d_141[0][0]          
____________________________________________________________________________________________________
convolution2d_137 (Convolution2D)(None, 17, 17, 160)   179360      batchnormalization_136[0][0]     
____________________________________________________________________________________________________
convolution2d_142 (Convolution2D)(None, 17, 17, 160)   179360      batchnormalization_141[0][0]     
____________________________________________________________________________________________________
batchnormalization_137 (BatchNorm(None, 17, 17, 160)   320         convolution2d_137[0][0]          
____________________________________________________________________________________________________
batchnormalization_142 (BatchNorm(None, 17, 17, 160)   320         convolution2d_142[0][0]          
____________________________________________________________________________________________________
averagepooling2d_15 (AveragePooli(None, 17, 17, 768)   0           mixed4[0][0]                     
____________________________________________________________________________________________________
convolution2d_135 (Convolution2D)(None, 17, 17, 192)   147648      mixed4[0][0]                     
____________________________________________________________________________________________________
convolution2d_138 (Convolution2D)(None, 17, 17, 192)   215232      batchnormalization_137[0][0]     
____________________________________________________________________________________________________
convolution2d_143 (Convolution2D)(None, 17, 17, 192)   215232      batchnormalization_142[0][0]     
____________________________________________________________________________________________________
convolution2d_144 (Convolution2D)(None, 17, 17, 192)   147648      averagepooling2d_15[0][0]        
____________________________________________________________________________________________________
batchnormalization_135 (BatchNorm(None, 17, 17, 192)   384         convolution2d_135[0][0]          
____________________________________________________________________________________________________
batchnormalization_138 (BatchNorm(None, 17, 17, 192)   384         convolution2d_138[0][0]          
____________________________________________________________________________________________________
batchnormalization_143 (BatchNorm(None, 17, 17, 192)   384         convolution2d_143[0][0]          
____________________________________________________________________________________________________
batchnormalization_144 (BatchNorm(None, 17, 17, 192)   384         convolution2d_144[0][0]          
____________________________________________________________________________________________________
mixed5 (Merge)                   (None, 17, 17, 768)   0           batchnormalization_135[0][0]     
                                                                   batchnormalization_138[0][0]     
                                                                   batchnormalization_143[0][0]     
                                                                   batchnormalization_144[0][0]     
____________________________________________________________________________________________________
convolution2d_149 (Convolution2D)(None, 17, 17, 160)   123040      mixed5[0][0]                     
____________________________________________________________________________________________________
batchnormalization_149 (BatchNorm(None, 17, 17, 160)   320         convolution2d_149[0][0]          
____________________________________________________________________________________________________
convolution2d_150 (Convolution2D)(None, 17, 17, 160)   179360      batchnormalization_149[0][0]     
____________________________________________________________________________________________________
batchnormalization_150 (BatchNorm(None, 17, 17, 160)   320         convolution2d_150[0][0]          
____________________________________________________________________________________________________
convolution2d_146 (Convolution2D)(None, 17, 17, 160)   123040      mixed5[0][0]                     
____________________________________________________________________________________________________
convolution2d_151 (Convolution2D)(None, 17, 17, 160)   179360      batchnormalization_150[0][0]     
____________________________________________________________________________________________________
batchnormalization_146 (BatchNorm(None, 17, 17, 160)   320         convolution2d_146[0][0]          
____________________________________________________________________________________________________
batchnormalization_151 (BatchNorm(None, 17, 17, 160)   320         convolution2d_151[0][0]          
____________________________________________________________________________________________________
convolution2d_147 (Convolution2D)(None, 17, 17, 160)   179360      batchnormalization_146[0][0]     
____________________________________________________________________________________________________
convolution2d_152 (Convolution2D)(None, 17, 17, 160)   179360      batchnormalization_151[0][0]     
____________________________________________________________________________________________________
batchnormalization_147 (BatchNorm(None, 17, 17, 160)   320         convolution2d_147[0][0]          
____________________________________________________________________________________________________
batchnormalization_152 (BatchNorm(None, 17, 17, 160)   320         convolution2d_152[0][0]          
____________________________________________________________________________________________________
averagepooling2d_16 (AveragePooli(None, 17, 17, 768)   0           mixed5[0][0]                     
____________________________________________________________________________________________________
convolution2d_145 (Convolution2D)(None, 17, 17, 192)   147648      mixed5[0][0]                     
____________________________________________________________________________________________________
convolution2d_148 (Convolution2D)(None, 17, 17, 192)   215232      batchnormalization_147[0][0]     
____________________________________________________________________________________________________
convolution2d_153 (Convolution2D)(None, 17, 17, 192)   215232      batchnormalization_152[0][0]     
____________________________________________________________________________________________________
convolution2d_154 (Convolution2D)(None, 17, 17, 192)   147648      averagepooling2d_16[0][0]        
____________________________________________________________________________________________________
batchnormalization_145 (BatchNorm(None, 17, 17, 192)   384         convolution2d_145[0][0]          
____________________________________________________________________________________________________
batchnormalization_148 (BatchNorm(None, 17, 17, 192)   384         convolution2d_148[0][0]          
____________________________________________________________________________________________________
batchnormalization_153 (BatchNorm(None, 17, 17, 192)   384         convolution2d_153[0][0]          
____________________________________________________________________________________________________
batchnormalization_154 (BatchNorm(None, 17, 17, 192)   384         convolution2d_154[0][0]          
____________________________________________________________________________________________________
mixed6 (Merge)                   (None, 17, 17, 768)   0           batchnormalization_145[0][0]     
                                                                   batchnormalization_148[0][0]     
                                                                   batchnormalization_153[0][0]     
                                                                   batchnormalization_154[0][0]     
____________________________________________________________________________________________________
convolution2d_159 (Convolution2D)(None, 17, 17, 160)   123040      mixed6[0][0]                     
____________________________________________________________________________________________________
batchnormalization_159 (BatchNorm(None, 17, 17, 160)   320         convolution2d_159[0][0]          
____________________________________________________________________________________________________
convolution2d_160 (Convolution2D)(None, 17, 17, 192)   215232      batchnormalization_159[0][0]     
____________________________________________________________________________________________________
batchnormalization_160 (BatchNorm(None, 17, 17, 192)   384         convolution2d_160[0][0]          
____________________________________________________________________________________________________
convolution2d_156 (Convolution2D)(None, 17, 17, 192)   147648      mixed6[0][0]                     
____________________________________________________________________________________________________
convolution2d_161 (Convolution2D)(None, 17, 17, 192)   258240      batchnormalization_160[0][0]     
____________________________________________________________________________________________________
batchnormalization_156 (BatchNorm(None, 17, 17, 192)   384         convolution2d_156[0][0]          
____________________________________________________________________________________________________
batchnormalization_161 (BatchNorm(None, 17, 17, 192)   384         convolution2d_161[0][0]          
____________________________________________________________________________________________________
convolution2d_157 (Convolution2D)(None, 17, 17, 192)   258240      batchnormalization_156[0][0]     
____________________________________________________________________________________________________
convolution2d_162 (Convolution2D)(None, 17, 17, 192)   258240      batchnormalization_161[0][0]     
____________________________________________________________________________________________________
batchnormalization_157 (BatchNorm(None, 17, 17, 192)   384         convolution2d_157[0][0]          
____________________________________________________________________________________________________
batchnormalization_162 (BatchNorm(None, 17, 17, 192)   384         convolution2d_162[0][0]          
____________________________________________________________________________________________________
averagepooling2d_17 (AveragePooli(None, 17, 17, 768)   0           mixed6[0][0]                     
____________________________________________________________________________________________________
convolution2d_155 (Convolution2D)(None, 17, 17, 192)   147648      mixed6[0][0]                     
____________________________________________________________________________________________________
convolution2d_158 (Convolution2D)(None, 17, 17, 192)   258240      batchnormalization_157[0][0]     
____________________________________________________________________________________________________
convolution2d_163 (Convolution2D)(None, 17, 17, 192)   258240      batchnormalization_162[0][0]     
____________________________________________________________________________________________________
convolution2d_164 (Convolution2D)(None, 17, 17, 192)   147648      averagepooling2d_17[0][0]        
____________________________________________________________________________________________________
batchnormalization_155 (BatchNorm(None, 17, 17, 192)   384         convolution2d_155[0][0]          
____________________________________________________________________________________________________
batchnormalization_158 (BatchNorm(None, 17, 17, 192)   384         convolution2d_158[0][0]          
____________________________________________________________________________________________________
batchnormalization_163 (BatchNorm(None, 17, 17, 192)   384         convolution2d_163[0][0]          
____________________________________________________________________________________________________
batchnormalization_164 (BatchNorm(None, 17, 17, 192)   384         convolution2d_164[0][0]          
____________________________________________________________________________________________________
mixed7 (Merge)                   (None, 17, 17, 768)   0           batchnormalization_155[0][0]     
                                                                   batchnormalization_158[0][0]     
                                                                   batchnormalization_163[0][0]     
                                                                   batchnormalization_164[0][0]     
____________________________________________________________________________________________________
convolution2d_167 (Convolution2D)(None, 17, 17, 192)   147648      mixed7[0][0]                     
____________________________________________________________________________________________________
batchnormalization_167 (BatchNorm(None, 17, 17, 192)   384         convolution2d_167[0][0]          
____________________________________________________________________________________________________
convolution2d_168 (Convolution2D)(None, 17, 17, 192)   258240      batchnormalization_167[0][0]     
____________________________________________________________________________________________________
batchnormalization_168 (BatchNorm(None, 17, 17, 192)   384         convolution2d_168[0][0]          
____________________________________________________________________________________________________
convolution2d_165 (Convolution2D)(None, 17, 17, 192)   147648      mixed7[0][0]                     
____________________________________________________________________________________________________
convolution2d_169 (Convolution2D)(None, 17, 17, 192)   258240      batchnormalization_168[0][0]     
____________________________________________________________________________________________________
batchnormalization_165 (BatchNorm(None, 17, 17, 192)   384         convolution2d_165[0][0]          
____________________________________________________________________________________________________
batchnormalization_169 (BatchNorm(None, 17, 17, 192)   384         convolution2d_169[0][0]          
____________________________________________________________________________________________________
convolution2d_166 (Convolution2D)(None, 8, 8, 320)     553280      batchnormalization_165[0][0]     
____________________________________________________________________________________________________
convolution2d_170 (Convolution2D)(None, 8, 8, 192)     331968      batchnormalization_169[0][0]     
____________________________________________________________________________________________________
batchnormalization_166 (BatchNorm(None, 8, 8, 320)     640         convolution2d_166[0][0]          
____________________________________________________________________________________________________
batchnormalization_170 (BatchNorm(None, 8, 8, 192)     384         convolution2d_170[0][0]          
____________________________________________________________________________________________________
averagepooling2d_18 (AveragePooli(None, 8, 8, 768)     0           mixed7[0][0]                     
____________________________________________________________________________________________________
mixed8 (Merge)                   (None, 8, 8, 1280)    0           batchnormalization_166[0][0]     
                                                                   batchnormalization_170[0][0]     
                                                                   averagepooling2d_18[0][0]        
____________________________________________________________________________________________________
convolution2d_175 (Convolution2D)(None, 8, 8, 448)     573888      mixed8[0][0]                     
____________________________________________________________________________________________________
batchnormalization_175 (BatchNorm(None, 8, 8, 448)     896         convolution2d_175[0][0]          
____________________________________________________________________________________________________
convolution2d_172 (Convolution2D)(None, 8, 8, 384)     491904      mixed8[0][0]                     
____________________________________________________________________________________________________
convolution2d_176 (Convolution2D)(None, 8, 8, 384)     1548672     batchnormalization_175[0][0]     
____________________________________________________________________________________________________
batchnormalization_172 (BatchNorm(None, 8, 8, 384)     768         convolution2d_172[0][0]          
____________________________________________________________________________________________________
batchnormalization_176 (BatchNorm(None, 8, 8, 384)     768         convolution2d_176[0][0]          
____________________________________________________________________________________________________
convolution2d_173 (Convolution2D)(None, 8, 8, 384)     442752      batchnormalization_172[0][0]     
____________________________________________________________________________________________________
convolution2d_174 (Convolution2D)(None, 8, 8, 384)     442752      batchnormalization_172[0][0]     
____________________________________________________________________________________________________
convolution2d_177 (Convolution2D)(None, 8, 8, 384)     442752      batchnormalization_176[0][0]     
____________________________________________________________________________________________________
convolution2d_178 (Convolution2D)(None, 8, 8, 384)     442752      batchnormalization_176[0][0]     
____________________________________________________________________________________________________
averagepooling2d_19 (AveragePooli(None, 8, 8, 1280)    0           mixed8[0][0]                     
____________________________________________________________________________________________________
convolution2d_171 (Convolution2D)(None, 8, 8, 320)     409920      mixed8[0][0]                     
____________________________________________________________________________________________________
batchnormalization_173 (BatchNorm(None, 8, 8, 384)     768         convolution2d_173[0][0]          
____________________________________________________________________________________________________
batchnormalization_174 (BatchNorm(None, 8, 8, 384)     768         convolution2d_174[0][0]          
____________________________________________________________________________________________________
batchnormalization_177 (BatchNorm(None, 8, 8, 384)     768         convolution2d_177[0][0]          
____________________________________________________________________________________________________
batchnormalization_178 (BatchNorm(None, 8, 8, 384)     768         convolution2d_178[0][0]          
____________________________________________________________________________________________________
convolution2d_179 (Convolution2D)(None, 8, 8, 192)     245952      averagepooling2d_19[0][0]        
____________________________________________________________________________________________________
batchnormalization_171 (BatchNorm(None, 8, 8, 320)     640         convolution2d_171[0][0]          
____________________________________________________________________________________________________
mixed9_0 (Merge)                 (None, 8, 8, 768)     0           batchnormalization_173[0][0]     
                                                                   batchnormalization_174[0][0]     
____________________________________________________________________________________________________
merge_3 (Merge)                  (None, 8, 8, 768)     0           batchnormalization_177[0][0]     
                                                                   batchnormalization_178[0][0]     
____________________________________________________________________________________________________
batchnormalization_179 (BatchNorm(None, 8, 8, 192)     384         convolution2d_179[0][0]          
____________________________________________________________________________________________________
mixed9 (Merge)                   (None, 8, 8, 2048)    0           batchnormalization_171[0][0]     
                                                                   mixed9_0[0][0]                   
                                                                   merge_3[0][0]                    
                                                                   batchnormalization_179[0][0]     
____________________________________________________________________________________________________
convolution2d_184 (Convolution2D)(None, 8, 8, 448)     917952      mixed9[0][0]                     
____________________________________________________________________________________________________
batchnormalization_184 (BatchNorm(None, 8, 8, 448)     896         convolution2d_184[0][0]          
____________________________________________________________________________________________________
convolution2d_181 (Convolution2D)(None, 8, 8, 384)     786816      mixed9[0][0]                     
____________________________________________________________________________________________________
convolution2d_185 (Convolution2D)(None, 8, 8, 384)     1548672     batchnormalization_184[0][0]     
____________________________________________________________________________________________________
batchnormalization_181 (BatchNorm(None, 8, 8, 384)     768         convolution2d_181[0][0]          
____________________________________________________________________________________________________
batchnormalization_185 (BatchNorm(None, 8, 8, 384)     768         convolution2d_185[0][0]          
____________________________________________________________________________________________________
convolution2d_182 (Convolution2D)(None, 8, 8, 384)     442752      batchnormalization_181[0][0]     
____________________________________________________________________________________________________
convolution2d_183 (Convolution2D)(None, 8, 8, 384)     442752      batchnormalization_181[0][0]     
____________________________________________________________________________________________________
convolution2d_186 (Convolution2D)(None, 8, 8, 384)     442752      batchnormalization_185[0][0]     
____________________________________________________________________________________________________
convolution2d_187 (Convolution2D)(None, 8, 8, 384)     442752      batchnormalization_185[0][0]     
____________________________________________________________________________________________________
averagepooling2d_20 (AveragePooli(None, 8, 8, 2048)    0           mixed9[0][0]                     
____________________________________________________________________________________________________
convolution2d_180 (Convolution2D)(None, 8, 8, 320)     655680      mixed9[0][0]                     
____________________________________________________________________________________________________
batchnormalization_182 (BatchNorm(None, 8, 8, 384)     768         convolution2d_182[0][0]          
____________________________________________________________________________________________________
batchnormalization_183 (BatchNorm(None, 8, 8, 384)     768         convolution2d_183[0][0]          
____________________________________________________________________________________________________
batchnormalization_186 (BatchNorm(None, 8, 8, 384)     768         convolution2d_186[0][0]          
____________________________________________________________________________________________________
batchnormalization_187 (BatchNorm(None, 8, 8, 384)     768         convolution2d_187[0][0]          
____________________________________________________________________________________________________
convolution2d_188 (Convolution2D)(None, 8, 8, 192)     393408      averagepooling2d_20[0][0]        
____________________________________________________________________________________________________
batchnormalization_180 (BatchNorm(None, 8, 8, 320)     640         convolution2d_180[0][0]          
____________________________________________________________________________________________________
mixed9_1 (Merge)                 (None, 8, 8, 768)     0           batchnormalization_182[0][0]     
                                                                   batchnormalization_183[0][0]     
____________________________________________________________________________________________________
merge_4 (Merge)                  (None, 8, 8, 768)     0           batchnormalization_186[0][0]     
                                                                   batchnormalization_187[0][0]     
____________________________________________________________________________________________________
batchnormalization_188 (BatchNorm(None, 8, 8, 192)     384         convolution2d_188[0][0]          
____________________________________________________________________________________________________
mixed10 (Merge)                  (None, 8, 8, 2048)    0           batchnormalization_180[0][0]     
                                                                   mixed9_1[0][0]                   
                                                                   merge_4[0][0]                    
                                                                   batchnormalization_188[0][0]     
____________________________________________________________________________________________________
avg_pool (AveragePooling2D)      (None, 1, 1, 2048)    0           mixed10[0][0]                    
____________________________________________________________________________________________________
flatten (Flatten)                (None, 2048)          0           avg_pool[0][0]                   
____________________________________________________________________________________________________
dense_2 (Dense)                  (None, 32)            65568       flatten[0][0]                    
____________________________________________________________________________________________________
dropout_2 (Dropout)              (None, 32)            0           dense_2[0][0]                    
____________________________________________________________________________________________________
predictions (Dense)              (None, 3)             99          dropout_2[0][0]                  
====================================================================================================
Total params: 21643395
____________________________________________________________________________________________________
None
Model loaded
Trainable weights
[<tensorflow.python.ops.variables.Variable object at 0x7f96bb8be5d0>, <tensorflow.python.ops.va
…
